model/antonIA.pth (torch_old, 753814 bytes, 11 tensors)

encoder.weight f4 [129, 100]
00000000: ea41 623e 4c5c 3d3f 8129 fc3f d847 21c0
00000010: 2b21 a23d 11d5 e8bf 08a9 0fbe 7fba 00c0
00000020: ad81 913f f1a1 48bf ab52 d63f 930f d73e
00000030: c74a 3340 6755 57c0 7e4e 3fc0 63aa 0940
00000040: fe37 d23f 4c37 25bf c1d1 99be 738f 16bf
00000050: 4f69 fb3e 1ffa a8bf 336f 97bf ae21 fdbf
00000060: 46eb be3f 730d 123f 8e6c 08c0 0f00 1b3d
00000070: 90f3 fc3e cf70 2ac0 c45e ed3e 4323 383f
00000080: b5d0 c03f 984f b53e 8b8b 27be 2b69 9dbe
00000090: 407c ef3f 03ab 8d3f 1fe2 2fc0 dd40 2d40
000000a0: dde3 e43e bdc0 a83f bf96 ce3e 963f e23f
000000b0: a096 f63f c4d7 123e a116 c23f eaf4 cbbf
000000c0: a3dd 623f 2b72 d0bf 5f7a 543c a037 1e40
000000d0: 7b66 fdbf 0fe7 9abf c87c 3540 3c75 0040
000000e0: 562d 5fbf 3a23 28c0 0758 4e3e 479d d53f
000000f0: 43d7 7fbe 80db a0bf aa68 d1bf 1e0b 0f40
00000100: d359 cdbf d996 cdbf 1da6 fdbf 5924 c23e
00000110: ff97 1b40 d775 3240 ce7b f23d 1965 3e3e
00000120: 07ec 9e3f b635 7dbf 4c87 7a40 7089 e4bf
00000130: b2d0 77bf 8eb0 863f 86c2 4a40 cc59 b73e
00000140: acb3 333f 7a56 b53f 5145 35c0 c54f cabf
00000150: 6255 593e 9487 d23f 99a6 1640 c87f b63e
00000160: 49e2 18bf 5d41 eabc 9316 f3be d2b8 633e
00000170: 6209 2740 cd97 0340 681b 453f c283 febd
00000180: 8d03 eb3f 11b1 c23e b774 643f a9b1 c13f
00000190: e1bc 11c0 fae6 c03f 417e ecbf a0d7 993d
000001a0: c1db e53e 48c3 19bf a0b3 883f 3daa 58bf
000001b0: ebd6 8abe 076e 7b3f f660 b83e dc79 27bf
000001c0: cad6 5c3f 78b7 82bf 1922 fc3e 8ac0 00bf
000001d0: c345 d13f 923d 82bf db58 55bf c339 8ebf
000001e0: fd75 ddbd 7b76 48bf 1eca 653f d30d f63d
000001f0: bfc7 d2bf 94e0 213f 8518 ca3f 53de e7bf
00000200: b5d4 b6be cb46 9ebf 18e7 06c0 bed7 283f
00000210: ecb2 5c3f 4360 ecbd 4cd7 25bf 0f66 e7be
00000220: 7ada 513f 4d4e 74bf 2fe3 bcbd 5552 80bf
00000230: 2913 79bf f495 623f 1539 a03d 85ab 543f
00000240: 730e 213f a6d2 683e b85f 843f 3aee 0a40
00000250: f488 4f40 28cd 70bf 896d 42bf 6c95 9abf
00000260: 8ef4 923f ef60 febf 6e14 60c0 ead1 443f
00000270: 7958 72be 80b4 67bf a2a2 b7bf aed3 ed3f
00000280: 883c 59bf 1fc8 ddbf 8cbf 823f a4af 64bf
00000290: 1050 08be b636 25bf 23f8 cbbe 7eef 5ebf
000002a0: 6dd3 913f 86fa 01be 09de 6abf 5475 cfbe
000002b0: 5ae5 8d3f 933b 0dbf 11d9 de3f 02dc 6f3f
000002c0: 2f50 6f3d d8d9 a73f 672a 823e 69e5 5ebf
000002d0: 6444 bdbe 1a73 cd3e f001 d0bf 880b 0a3f
000002e0: ff83 783d 8045 3d40 b6c1 e4be da00 083f
000002f0: cb03 b7bf 654a 69bf 7dd6 6c3f f399 a1bf
00000300: 1fef c33e 9395 0ec0 312e 1d3f 3713 f4bf
00000310: 56d6 edbe ef71 d53f 15d8 483e 96b6 32bf
00000320: 52a4 6940 84e6 653e f305 87be 8ccc 4540
00000330: 48dc a33e f636 46bf f7c1 a83f c4bb 0d40
00000340: d49f de3c 91dc dcbf 1636 58bf 0320 80bf
00000350: 97da a63f dd17 0c3f fabc 2a40 ce48 913f
00000360: cbea 3140 42d9 5840 d44c a73e 6e06 be3c
00000370: c411 8dbf 4467 92bf 865d ea3f 1e48 98bd
00000380: 61f3 94bf 5ce8 97bd ea63 10bf 9c93 ff3f
00000390: 2044 1f3f a437 dfbf d952 5c3e 29da e0bd
000003a0: d265 b8c0 5878 f5bf 77b9 1ebd c913 f03f
000003b0: efff dabd 5453 f2bd d1a7 3e40 1dd4 42bf
000003c0: 0e80 34bf d63a e3bf 8cdc a73f e399 f1bd
000003d0: 9e99 05bf 5306 c1bf b481 cb3f e9ac 0cc0
000003e0: 8f42 283f 3df8 cbbf f135 ac3f b29d b63f
000003f0: 196c fa3e 67d1 813f 8fcb 2abd 37ab 203f
0.22095457 0.7396896 1.9700166 -2.52001 0.079164825 -1.8190023 -0.14029324 -2.0113828
1.1367699 -0.783721 1.6743978 0.4200407 2.801439 -3.3645875 -2.9891658 2.1510246
1.6423337 -0.645375 -0.30042842 -0.58812636 0.49103782 -1.3201331 -1.183081 -1.9775903
1.491555 0.5705177 -2.1316257 0.037841853 0.49404573 -2.6631353 0.46361363 0.71928805
1.5063692 0.35412288 -0.16361825 -0.307443 1.8709793 1.1067814 -2.7481763 2.707084
0.44705096 1.3183819 0.40349385 1.7675655 1.9264717 0.1434012 1.5163156 -1.5934117
0.8861944 -1.6284841 0.012968629 2.472145 -1.97969 -1.2101763 2.835741 2.0071554
-0.8717855 -2.62715 0.20150767 1.6688622 -0.2498446 -1.2566986 -1.6360066 2.2350535
-1.6043037 -1.606166 -1.9816319 0.37918356 2.431152 2.7884424 0.1184002 0.18593253
1.241578 -0.9891008 3.9145079 -1.7854443 -0.9680282 1.052263 3.1681228 0.35810697
0.7019603 1.4167016 -2.8323557 -1.5805594 0.21223977 1.6447625 2.3539183 0.35644364
-0.59720284 -0.02859562 -0.4747816 0.22238472 2.6099477 2.0561402 0.76994944 -0.124274746
1.8360459 0.38025716 0.8924059 1.5132343 -2.2771533 1.5070488 -1.847603 0.0751183
0.4489422 -0.600636 1.0679817 -0.84634763 -0.27117094 0.98214763 0.36011475 -0.6542032
0.8626524 -1.021224 0.49244764 -0.5029379 1.6349415 -1.017504 -0.8333871 -1.1111377
-0.1081352 -0.78305787 0.8976153 0.120143555 -1.6467208 0.63233304 1.5788733 -1.8114723
-0.35709158 -1.2365354 -2.1078548 0.65954196 0.86210513 -0.11541798 -0.6478164 -0.45195052
0.81973994 -0.9543198 -0.09223019 -1.0025126 -0.9729486 0.8851006 0.078233875 0.8307422
0.6291267 0.22736606 1.0341711 2.1707902 3.242734 -0.94063044 -0.7594839 -1.207685
1.1480882 -1.9873332 -3.501247 0.76882803 -0.23666562 -0.90509796 -1.4346507 1.8580225
-0.8485799 -1.7326697 1.0214705 -0.89330506 -0.13311791 -0.6453661 -0.3983775 -0.87084186
1.1392647 -0.12693223 -0.9174505 -0.40519202 1.1085618 -0.5516903 1.7409993 0.9369508
0.05842608 1.3113356 0.25422975 -0.870688 -0.3696624 0.40126878 -1.6250591 0.53923845
0.060672756 2.957367 -0.4467904 0.531263 -1.4298033 -0.9112914 0.92514783 -1.2625107
0.38268372 -2.2278793 0.6139861 -1.9068364 -0.46452588 1.6675395 0.19613679 -0.69809854
3.6506543 0.22451216 -0.26371726 3.0906096 0.32004 -0.77427614 1.3184193 2.2145853
0.027175821 -1.7254812 -0.8445753 -1.0009769 1.3035458 0.5472391 2.6677842 1.1350343
2.7799556 3.3882604 0.32675803 0.023196425 -1.1021047 -1.1437764 1.8309791 -0.0743563
-1.1636773 -0.07417366 -0.56402457 1.9966922 0.62213326 -1.7438855 0.21515979 -0.10979111
-5.762429 -1.9177351 -0.03875109 1.8756038 -0.10693347 -0.118323 2.9789927 -0.7610491
-0.70507896 -1.775233 1.311418 -0.1179693 -0.52187526 -1.5080055 1.5898957 -2.1980536
0.6572656 -1.5935131 1.3453962 1.4266875 0.48910597 1.014203 -0.041698035 0.62761253

decoder.weight f4 [129, 100]
00000000: 125f 2cbe ff77 a2bf 8972 03be 192e 63bf
00000010: 4823 0d3f a867 2840 9637 163f 6218 a73f
00000020: 807b 05bf f25a bdbf 7e10 77be 2dbf da3e
00000030: b1cd 913f 79db f13f c26e 99be 69b9 19c0
00000040: 47cc 5dbf fdb4 01c0 be7a 943f 8a9e ecbf
00000050: 85b7 94bf ab8b 5d3d efef af3f ee6e 20bf
00000060: 9308 d6be 3761 0c3f eee7 9b3f 8423 e13f
00000070: 8a84 563f 7ad1 d83e c7e5 e73f 3d4f babe
00000080: a834 903e 479f a33f bd5b 0b40 a2a3 8b3f
00000090: 1e33 4c40 35f0 c83f 04db 0d3d df73 c23f
000000a0: da33 1240 f8e5 b93e 0c86 603f 09f6 95bf
000000b0: 9dc5 8ebf 9a26 8b3f 073d dcbc 4e8f 833f
000000c0: 52ba e7be 7446 dbbe b605 5dbf 3f34 80be
000000d0: fc43 65bf 30f6 eb3f 49e4 2a3e 6e95 bdbf
000000e0: 4bff a2bf 43f6 6d3f b4c4 dd3f 308a 6dbf
000000f0: 8627 70bf 1533 f3bf 8074 34bf e5a4 6d3f
00000100: e1f1 f8bf eb30 67bc bbf4 113f f1af 16bf
00000110: 1930 553f 02ae 933f 00da 01c0 1db7 743e
00000120: b001 ff3e b7a5 e2be b21a 333f c906 ef3c
00000130: a9f0 803f c186 e8bd 7efe b1bf 673d a03f
00000140: 78ad 873f 4fe5 743f e1d5 903f 4675 a73e
00000150: 9766 cbbf e16a 8f3f 97e8 10c0 a900 593f
00000160: 498a 0dc0 5f9b 903e fb4b fe3d a994 adbf
00000170: 5c5e 88bd eece 913f 6263 8cbf e8ba ad3f
00000180: 7495 dcbf ebf3 0bc0 f1f0 e73f b0bb ae3f
00000190: e081 aabf c6fa bf3e f528 15bf 7218 553e
000001a0: 3a06 6a3f 7535 6fbf 94d0 bcbe c203 143f
000001b0: a259 3abe 2121 ed3e 585f 9ebf f269 083e
000001c0: a204 263f debd f03e f7f3 66be 1068 573e
000001d0: 9c90 2dbf c688 51bf b35c 503f c7d1 2fbf
000001e0: b23d 4abf 507c bcbe b0fd 253f e4fe 143e
000001f0: 27be 403e 59d7 b3bb 0d19 163f aed2 4cbd
00000200: a09b 69bf b15e 83be df63 a7be 2029 673e
00000210: 364c 42bf 692b 57bf dc3b 053e 5a05 1e3f
00000220: 4989 7f3f 2abd 5e3f 1f24 98be 0d0f 8fbd
00000230: 8a58 57bf f661 bcbd f8d2 633e 6a57 85be
00000240: 2903 0d3f 0fdd 49bd 543b d4bd eb9c 353e
00000250: 9beb 073e 457f 00bf 46fb 073f 4807 dabe
00000260: 6e07 9b3e 10d2 d63e f19d 0d3e d4b1 8abf
00000270: abe0 8ebe 8e9f 3f3f eceb 353f b390 eebe
00000280: 28c4 1abf 980b 1abe 8766 413f f198 b9bd
00000290: 4a3c 243d 1e80 023f 40ea a2be 7ccc 0fbd
000002a0: 72e4 debe 0d6d bd3e 7e74 5d3f 11a7 4abf
000002b0: f56d 523f f4e1 7cbf b04c 23bf bdc3 4a3e
000002c0: d3b9 793f 69ef a13f c8e9 36bf c2a4 7f3f
000002d0: f953 d2be aa90 37bf 351a 5d3f fe67 193f
000002e0: 00e2 f93e 3041 fc3e add0 1b3f 332e b2be
000002f0: ec9b 55bf 11b2 2f3e 54f0 0fbf b9ac 15bb
00000300: cd8a ff3d a008 4b3e e733 93be db37 1fc0
00000310: 3db5 33be 9a40 29bf cb5b 9abf f5d3 33bd
00000320: d879 8bbe bc3c 0fbf c3b6 8dbe cc81 143f
00000330: 5cec 573f f797 5f3f aba4 18bf 4fb7 0340
00000340: c4db bc3f 6b9a 773f f711 8fbf 710c d43f
00000350: f1ca 77be b439 093f ef97 083f 234e 04bf
00000360: 868b 5a3f f2ab 5abf 404c cdbf 55a1 553e
00000370: 3718 85bd d2ea 65bd 3dcd df3f b332 9abf
00000380: 62e8 f9bf 88a5 edbf 9305 ca3d ede9 94bf
00000390: 2235 6d3e e7c1 953d 702f aa3c d635 fcbe
000003a0: 007e a5bf 3a43 5240 248f 4c3f a4e2 1cbe
000003b0: 5652 1540 b3f4 21be 23f6 403f 660c 233e
000003c0: e2e7 65c0 4e26 183e 7ae2 923f ccb7 5f3f
000003d0: 1238 95bf ea28 1440 4dee 0e40 d665 bbbf
000003e0: dcaa 3ac0 f385 b2bf 72bb bebf a826 94bf
000003f0: 0660 ebbf d749 3540 d4be f7bf 19e8 e8bf
-0.16833141 -1.269287 -0.1283666 -0.88742214 0.5513196 2.6313267 0.5867857 1.3054316
-0.5214157 -1.4793379 -0.24127385 0.4272398 1.1390897 1.8895103 -0.29967314 -2.4019415
-0.8663983 -2.0266716 1.1599958 -1.8485882 -1.1618506 0.054088276 1.3745097 -0.62669265
-0.41803417 0.5483584 1.2180154 1.7588964 0.8379599 0.42347318 1.8116997 -0.3638858
0.28165174 1.2782983 2.1774743 1.0909312 3.19062 1.5698305 0.034632698 1.5191611
2.2844148 0.36308265 0.8770454 -1.1715709 -1.1154057 1.0871155 -0.026884569 1.0278108
-0.4525934 -0.4282719 -0.8633684 -0.2503986 -0.8955686 1.8434505 0.16688646 -1.4811227
-1.2734159 0.9295389 1.7325654 -0.9278898 -0.9381031 -1.8999964 -0.70490265 0.92829734
-1.9448816 -0.014110784 0.57014054 -0.58862215 0.83276516 1.1537478 -2.0289307 0.23897977
0.49805975 -0.44267055 0.6996261 0.02917804 1.0073444 -0.11353827 -1.390579 1.2518739
1.0599813 0.956624 1.1315271 0.3270666 -1.5890683 1.1204492 -2.2641962 0.8476663
-2.2115653 0.2824354 0.12416836 -1.3560992 -0.066586226 1.1391275 -1.0967829 1.3572664
-1.723311 -2.1867626 1.8120404 1.3651028 -1.3320885 0.37496012 -0.5826562 0.20810106
0.9141575 -0.93440944 -0.36877882 0.57818234 -0.18198255 0.46314338 -1.2372847 0.13321665
0.6485082 0.47019857 -0.22554003 0.2103579 -0.6779878 -0.81849325 0.8139145 -0.6867947
-0.7900039 -0.36813593 0.6484022 0.14550358 0.18822537 -0.005488318 0.58631974 -0.050005607
-0.9125309 -0.2565818 -0.32693383 0.22574282 -0.7589754 -0.84050614 0.13011116 0.61726916
0.99818856 0.8700739 -0.29715058 -0.069852926 -0.84119475 -0.09198372 0.22248447 -0.26043254
0.55082947 -0.049283084 -0.103628784 0.1773564 0.1327347 -0.501942 0.5311779 -0.4258368
0.30279106 0.4195714 0.13829781 -1.0835519 -0.27905783 0.74852836 0.71063113 -0.46594772
-0.6045556 -0.15043485 0.7554707 -0.090623744 0.04009656 0.5097674 -0.31819344 -0.03510712
-0.43533665 0.36997262 0.8650588 -0.79161173 0.8219903 -0.9878228 -0.6378889 0.1980123
0.9754917 1.2651187 -0.7145047 0.99860775 -0.4107969 -0.71705115 0.86368114 0.59924304
0.48805237 0.49268484 0.6086529 -0.34800872 -0.8344104 0.1715777 -0.56226087 -0.0022838546
0.12477646 0.19827509 -0.28750536 -2.4877841 -0.17549606 -0.661142 -1.2059263 -0.04390331
-0.27241397 -0.5595205 -0.276785 0.58010554 0.8434503 0.87341255 -0.59626263 2.0580633
1.4754567 0.9672 -1.1177357 1.6566297 -0.2419851 0.53603673 0.5335683 -0.5168173
0.85369146 -0.8541862 -1.6038895 0.20862325 -0.06498759 -0.056132145 1.7484509 -1.2046722
-1.9524043 -1.8566141 0.098643444 -1.1633888 0.231648 0.073123746 0.020774573 -0.49259824
-1.2929077 3.2853532 0.79905915 -0.15320832 2.3331504 -0.15816002 0.75375575 0.15922698
-3.592278 0.14858362 1.1475365 0.87389827 -1.1657736 2.3149972 2.2332947 -1.4640453
-2.9166784 -1.3947128 -1.4900954 -1.1574297 -1.8388679 2.8326318 -1.9355111 -1.819583

decoder.bias f4 [129]
00000000: 7de3 28c0 879f 3a3f 5c0b ed3f 84eb 2a3f
00000010: f343 13c1 1e89 5fc0 3b53 eec0 d4c1 15c0
00000020: 9c41 ffbf 7caf 93bf 752e 9abf 3721 88c0
00000030: 7085 dfc0 9bc1 02bf b6a6 913f 08ad 293f
00000040: a0a0 5cbf 1dd7 8d3e 4070 9bbf 2b49 b0be
00000050: d6d0 04bf 8ce2 8ebf dd97 25c0 59e3 48bf
00000060: 2826 f33f 289d 7f3f 353b bc3f f8a7 4c3d
00000070: 2979 643f 4877 173e e8c6 88c0 d727 573f
00000080: 1029 2a3d 65de 6dbf 62d4 553e 84e6 513f
00000090: da78 813e 14b0 babe 28ca a23d e479 b53e
000000a0: 2fca 61be fa7d 96bf 12bb 25bf e796 d4c0
000000b0: fc53 7f3f ff9c 00bf a83f ff3d da2c c63f
000000c0: 7666 f7bf a506 7d3f 75ab 823f 32ec 5ebf
000000d0: c854 043f 35f0 8a3e 04a2 483e a885 72c0
000000e0: fa80 d9c0 3178 6bbe cc49 dfbf 907b eac0
000000f0: 0178 0bc0 7778 38c0 16d0 bcc0 fe13 82c0
00000100: b82f d33f 0226 66c1 a641 273f b0b4 6dbe
00000110: 0633 25bf 2877 30bf 7ce6 fd3d c98b 40bd
00000120: 6248 b13e 8f22 dabe f0bc 1dbf 48f5 e43f
00000130: d959 a5bf f02c 3fbf efd8 3fbf e53d 613f
00000140: 1bab 833f ecc6 393f 74e7 f5bf 5806 d83e
00000150: 69ad 14bf 20ab 5c3e b025 f73f a031 dbbe
00000160: 4599 04bf bd32 b3bf 3f64 333f 0bed b5bf
00000170: fe9e 2fc0 97a2 d23e f4bf bcbf ea36 3ac0
00000180: 3772 95c1 27e9 16c0 0521 fcbf 7556 b4bf
00000190: 0ad9 3cc0 ad75 a9c0 a501 b2c0 0cbb 3bc0
000001a0: bc03 7fc0 e109 95c0 797f 96c0 5b08 39c0
000001b0: 12e9 05c0 0e78 14c0 642b e5bf b1b4 023f
000001c0: a302 93bf afd5 45c0 3182 e3bf bf18 433f
000001d0: f131 2fc0 a8ba bbbf ae1f a3c0 f1c4 09c0
000001e0: 345a 10c0 e084 81c0 d09c 04c0 ff35 11c0
000001f0: aa04 10c1 9751 6ac0 418b 5cc0 12ce 16c0
00000200: 7465 04c0
-2.6388848 0.7289967 1.8519092 0.6676562 -9.204089 -3.492744 -7.44766 -2.3399553
-1.9941897 -1.1537929 -1.2045428 -4.2540545 -6.9850388 -0.5107667 1.1379001 0.6627965
-0.86182594 0.2770318 -1.2143631 -0.34430823 -0.5188116 -1.1162887 -2.587394 -0.78471905
1.8996019 0.99849176 1.4705569 0.049964875 0.89247376 0.14791596 -4.2742805 0.84045166
0.041543067 -0.9291747 0.20881799 0.81992364 0.25287515 -0.36462462 0.079487145 0.35444558
-0.22049783 -1.1757195 -0.6473857 -6.6434207 0.99737525 -0.5023956 0.12463313 1.5482438
-1.9328144 0.98838264 1.0208575 -0.87079155 0.51691866 0.27136388 0.19593054 -3.7894077
-6.796994 -0.22995068 -1.7444396 -7.3275833 -2.1791995 -2.8823526 -5.900401 -4.0649405
1.6498938 -14.384279 0.65334547 -0.23213458 -0.6453098 -0.6893182 0.12397477 -0.04700831
0.34625536 -0.4260449 -0.6161642 1.7887354 -1.2918044 -0.74677944 -0.7494039 0.8798507
1.0286592 0.72569156 -1.9211259 0.4219234 -0.580771 0.21549654 1.9308376 -0.42811298
-0.5179637 -1.3999859 0.7007484 -1.4212965 -2.744079 0.4113967 -1.474608 -2.9096017
-18.680769 -2.3579805 -1.9697577 -1.4088885 -2.950747 -5.2956147 -5.5627007 -2.9332914
-3.984603 -4.657456 -4.7030606 -2.891135 -2.0923505 -2.3198276 -1.7903867 0.51056963
-1.148518 -3.0911672 -1.7774106 0.76209635 -2.7374232 -1.4666338 -5.097617 -2.1526453
-2.2555056 -4.04747 -2.072071 -2.2689207 -9.001139 -3.6612298 -3.4459994 -2.3563275
-2.0686922

LSTM.weight_ih_l0 f4 [400, 100]
00000000: 2297 f7bd 73ab 093f 548b f4bd fe8a bebd
00000010: adfe ab3e 373a 20be fdf9 9b3e 9906 14bf
00000020: 4d71 0dbf c375 60be 7127 313d a22b 3d3f
00000030: 8593 bf3e f0e4 0e3d 80d9 6d3e 2454 193f
00000040: ea46 753d 2938 823e 0806 45bd 4095 e9be
00000050: 5259 f9bd 09bf c1be 5c2a ed3e 0c3b 813e
00000060: e590 b13d d572 28be 6661 523e 3f0f a33e
00000070: cc71 d2be 17d6 333d 14a4 6fbe 587d e3bd
00000080: f401 33be a729 123f e621 08be c902 f5be
00000090: 1c6c 84be 0a8b b93d 916e f7bd 7588 9abe
000000a0: 66ae 273e be2e 743e 9779 0dbf da17 cabe
000000b0: 52b8 3f3e 93b0 5d3c 0486 92bd 1c30 09be
000000c0: f7f7 883d 1ebf 093f 914a 0fbf 0ccd 8dbe
000000d0: ac6e 013f 4422 d4bc 1dca 053e 0934 6cbd
000000e0: c990 be3e d1db d4bd 310a 8cbd 0be6 3fbb
000000f0: e096 26bd 5477 ab3e bdfb 553e 7b3f 873d
00000100: 23fd 42be 07c9 923e 1301 10bd 07d0 f83e
00000110: e29a 4a3f 8118 783e ac83 9fbe 3031 13bf
00000120: d4b5 3abe 11bb 483f 1179 a7bd 668e ca3d
00000130: ce54 d5be f41b 973e fadb 243f c802 8a3e
00000140: a195 9abe 1772 c6be 57bd c43e d2fa f2be
00000150: dd30 36bf d186 a6bc 68ec ea3d 4dc5 df3d
00000160: 3317 94be 1dbe cabe 08e9 20bc 495d 8d3f
00000170: 3143 babd d8d8 c1be 66df 3cbd fc17 e7be
00000180: 96b6 ca3e b711 1a3e 8786 2cbe aa9a 1fbe
00000190: ca6c 853e 7eb9 023f 27b2 c33e ba01 06bf
000001a0: bf59 51bf 7f92 3ebd bb73 873e 6bad 0abe
000001b0: eaf8 2a3e c4ea 0e3f fed3 b03e c2a8 e0be
000001c0: 09a3 70be 2973 ebbd c84d 56bf c141 4abe
000001d0: b715 833e 485a 1e3f f2e7 b8bd f57d 103e
000001e0: 7b56 6a3e be4a e5be a747 673d 7fa7 9b3d
000001f0: e5ad 1e3e 1271 973c c2fa 013d 9b3c b23d
00000200: 662e 1f3f 300a de3d b1b5 733e 80f4 373f
00000210: a1d0 bebe d092 203f 5321 50bf 3372 98bd
00000220: 5376 8ebe 9320 e13e 2c4d 823e 5940 733d
00000230: 5753 dd3d d252 393d 86f1 d83e 371f 7f3e
00000240: 13f6 a6be 2b1a d4be b4c2 283f b2fa 0e3e
00000250: a59d b33e cbb4 893e a997 163e c619 e23e
00000260: 51c9 cdbe e654 9abe 43e6 01be b11c 803e
00000270: 7d58 9d3d 40bc 7dbc 48b0 b9be bfe4 82be
00000280: 4c5c e4bd 4f52 dfbe 83ac 8c3d 00c2 403e
00000290: 2118 a8be fb10 b33e 2c75 d6be a4a8 3c3f
000002a0: 12cb 4a3e f658 2d3e 98c9 72be 23d7 973c
000002b0: 9621 d13d 8d6a eb3e a368 503d 91ac c8bd
000002c0: 86ce 243e 8557 f63e 0ed2 4cbf cb8c 4e3d
000002d0: 7f13 17bf eb6f 85be 0d5e 3b3e 0584 a3be
000002e0: da0b 8e3c e331 823e 0a2f dabe 8bcf a43e
000002f0: ea82 72bd f2ce adbe b356 303d add5 a93e
00000300: 8897 e43e 5ef5 edbe c41a 113e 444c b03e
00000310: 6c6c fcbe eacc 1a3d d52c 933e 9643 b93e
00000320: 954d b4bd 4f45 1fbd e1f6 69be a2c8 8f3e
00000330: 96ce fc3e 5eeb a7be 7d8e eabc c387 72bf
00000340: 0316 003d 954c 43be 90a3 d6be 801c 82be
00000350: 2d34 a63d e874 d43d 2a3b a2be 81e8 eebd
00000360: 565f ba3c 9ffd 3f3e b90a 3b3e 4b8b dfbd
00000370: 00a8 3fbe 772f cdbd a3b1 883c 2582 113e
00000380: 442e b93d 1d88 de3e 9f78 0f3e 75d5 6b3f
00000390: 42d4 f6be 416f 5ebe 5008 ac3e 2ce7 c1bc
000003a0: 209a e93d 8e4b 2dbf abba 94bd c4c6 2abc
000003b0: de71 ecbd 25cc b9bc 791c 6abe b876 edbe
000003c0: 3a90 ac3d 3720 82be 1d15 8e3e f8af d23d
000003d0: a084 613f dcac 153f 3cb3 1d3e fe6f bfbe
000003e0: e07c 913d 2b82 383f 9963 3bbe b1f2 8c3e
000003f0: fad2 e23e 4a01 e8bd 4a18 ab3d 9519 a83e
-0.12089373 0.53777236 -0.11940637 -0.093038544 0.3359274 -0.15647207 0.30464163 -0.5782257
-0.5525101 -0.21919923 0.043250505 0.73894703 0.37417236 0.0348863 0.23227501 0.59894013
0.059882082 0.25433472 -0.048101455 -0.4562168 -0.121752396 -0.3784106 0.4632138 0.25240362
0.086702146 -0.16450055 0.20544967 0.3184757 -0.41102445 0.043905344 -0.23402435 -0.11107892
-0.17481214 0.57094806 -0.13294181 -0.47853687 -0.2586373 0.09059723 -0.12081636 -0.30182233
0.16375121 0.23845956 -0.55263656 -0.39471322 0.18722656 0.013530868 -0.07154468 -0.13397259
0.066879205 0.53807247 -0.55973154 -0.276955 0.50559497 -0.025895245 0.13065381 -0.057666812
0.37219837 -0.10393489 -0.06837881 -0.0029281403 -0.04067123 0.33489478 0.20896812 0.06603905
-0.19041876 0.28668997 -0.035157274 0.48596212 0.7914258 0.24228097 -0.31155145 -0.5749693
-0.18233424 0.7841044 -0.081773885 0.098904416 -0.41666263 0.29513514 0.6439816 0.26955247
-0.30192283 -0.3875892 0.38425705 -0.47456986 -0.7116831 -0.020327957 0.11470872 0.10926304
-0.2892395 -0.3959817 -0.009821184 1.1044093 -0.09094847 -0.3786075 -0.046111487 -0.45135486
0.39592427 0.1504582 -0.16848193 -0.15586343 0.26059562 0.5106429 0.38221857 -0.52346385
-0.81777567 -0.04652643 0.26455483 -0.13542716 0.16696516 0.55826974 0.34536737 -0.43878752
-0.23499693 -0.114965744 -0.83712435 -0.19751646 0.25602505 0.6185651 -0.09028615 0.14110549
0.22884552 -0.44783586 0.056464817 0.07600307 0.15496023 0.018486533 0.031733282 0.08702966
0.62180173 0.10841787 0.23799779 0.7185745 -0.37268546 0.6272402 -0.8130085 -0.07443657
-0.2782465 0.43970165 0.25449502 0.05938754 0.108069114 0.045245 0.42371768 0.24914251
-0.32609615 -0.41426215 0.65922093 0.1396282 0.3508121 0.26895747 0.14706291 0.4416029
-0.40192655 -0.30142897 -0.12685494 0.2502189 0.076828934 -0.015486777 -0.36267304 -0.25565144
-0.11150417 -0.43617484 0.068688415 0.18824005 -0.3283091 0.34973893 -0.4188627 0.73694825
0.19804028 0.16928467 -0.23709714 0.018535202 0.10211484 0.4597973 0.05088104 -0.097985394
0.16094407 0.48113647 -0.8000802 0.05042724 -0.59014124 -0.2606195 0.18297596 -0.3193666
0.017339636 0.25428686 -0.42614013 0.32189593 -0.05920688 -0.3394695 0.043051433 0.33170834
0.4464686 -0.46476263 0.14170367 0.34433186 -0.4930147 0.037793078 0.28745142 0.36184376
-0.0880386 -0.038884457 -0.22848083 0.28082758 0.49376363 -0.32796758 -0.028632397 -0.94738406
0.031270992 -0.19072182 -0.41921663 -0.2541237 0.081154205 0.103738606 -0.31685764 -0.1166544
0.022750538 0.18749093 0.18265809 -0.1091524 -0.1871643 -0.10018819 0.016686266 0.14209802
0.090420276 0.4346322 0.14010857 0.92122585 -0.48208815 -0.21722127 0.33600092 -0.023669802
0.1140635 -0.6769341 -0.072621666 -0.010423366 -0.11545156 -0.022680352 -0.22862424 -0.46379638
0.084259465 -0.25415203 0.27750483 0.102874696 0.88092995 0.5846689 0.15400404 -0.3739013
0.07103896 0.7207362 -0.18299712 0.2752891 0.44301587 -0.11328371 0.08354242 0.32832018

LSTM.weight_hh_l0 f4 [400, 100]
00000000: f5c9 0540 39c7 1f3d bdd6 b93d 3f49 f7be
00000010: 526e 41be 1bb2 00be 2011 89bf ad74 18bf
00000020: 5885 0fbf 07f1 89bf 1e25 91bf 7e2c 87be
00000030: c500 0740 22b5 c63e 1db5 52bf 39ed 11bf
00000040: 10e3 3c3f 8af9 95be 0b8d 263d 8519 1040
00000050: 22d8 613e f1b4 e83f 1b77 5c3f 331f 07bf
00000060: ee61 983f 3991 bdbe 4dd9 203f 0293 8c3e
00000070: 56c9 17bd 32a6 0240 5b92 a13f d9c4 883f
00000080: dfe7 3b3f f070 f63e 97b6 02bf 644f 963d
00000090: 838c 7c3e 2c41 44bf 006f 1f3f 8356 a23e
000000a0: c515 463f 0eaf 9d3f fc5a 74bf c9f2 e93b
000000b0: a323 6abf ae13 923e 5907 13be e3f1 1bbf
000000c0: bdc8 90bf 32bd d23e f850 973f a533 8d3f
000000d0: e9b6 2bbf 5313 6cbe c024 72bf 1dac 943e
000000e0: 95dc 303e e609 d9bd 867a ffbe 6a54 173e
000000f0: cf1b 90bf 603a a2bf 785e 35bf f79a 763f
00000100: 0355 f3be 1cbc 5bbf c030 38bf fb64 f03c
00000110: 055a 89bd db6d 13bd feba a23e 6808 35bf
00000120: a0e8 673f 0e6d bcbe 4b17 703e b22b 2b3f
00000130: 1918 f8bd 3996 37bf ea16 5bbf 081d 923f
00000140: d8bd 31be f2ad b33e a24f adbf 8395 acbf
00000150: 3b96 e2bc d7a7 db3e 8159 0c3f 78aa 2f3f
00000160: e4f8 73bf f7db 9e3d 118e 8b3e 88bc e6bf
00000170: 0111 943f 0efe 9a3f 8f3d 9d3d 0558 0f3e
00000180: 211d 46be 114e 1bc0 ed99 49be 1947 0d3e
00000190: 6b27 5e3e 6ece aa3a e2f3 0b3f d234 b13e
000001a0: b8f0 3cbf 67fc bc3e 1ae5 ae3f 3617 00bf
000001b0: 5a9c 773f c67e 94bf 95bc c13e c7b1 3bbf
000001c0: be1f d7be c605 d63f c86d 7abf a7c2 2b3f
000001d0: 2c5d cfbf 54a7 853f a864 33be 6dbd 3a3f
000001e0: e5c5 883f 3fe7 db3e 62ee 27bf 05bc b1bd
000001f0: 3217 c63f c702 923f 62f2 533e bc85 8f3d
00000200: 20ac 4cbf e241 543f 43ef 1bbf 0a49 b5bf
00000210: 2c11 b2bf 34c6 76bf ab17 c83f 2673 413f
00000220: b5be 9b3e c0cd 0840 3571 efbf 2bf9 0dbf
00000230: 4edd a6bf 239a 1a3f 8caf 303f 34cb 59bf
00000240: d48d 1cbf 353c 343e acdc c23e bf4b 1e3f
00000250: d99c 123f 8188 ff3d bf45 5ebf 937f 2c3f
00000260: c964 f9bc 6454 73bf 715c 77bf 8bcd 6e3f
00000270: 7130 1abf 8f72 fdbf c289 64bd 6d97 343f
00000280: 334b 84bd 2236 063e b057 583f aeb4 b0bf
00000290: 036f 523e 5f1e 2dbf 7355 f2be 7646 813e
000002a0: 1c82 99bf a42f 1bbe b20e 47bf 5a51 0bc0
000002b0: b5e7 b03f 8854 de3e 2b8f 9c3e 83e1 e8be
000002c0: 66be 7abf 4ef7 2bbf e73a 45bf cb7e 5cbf
000002d0: 8ad3 09bf 4df8 8e3e 12a0 ad3e 3b26 35bf
000002e0: 2aa3 0dbe 1f84 7fbc fcc0 dd3e 5736 373f
000002f0: 288a 09be d8f8 13bf 1599 a13e 97ab 21bf
00000300: 0b33 b13e 6117 e1bf 8a51 43be b1d8 0a3e
00000310: 48b1 b43d 58d3 1b3f 6394 a3bd 977b 72bf
00000320: 3878 6e3f e905 6bbe 9cf0 633f 4c67 53be
00000330: 1e21 da3e f09a 093e 3dba e2bd 1963 903e
00000340: a122 89be f070 dbbf 4aab 493e ee06 74be
00000350: 2491 303e 3348 7d3d 0376 57be 528b 12bd
00000360: 0a3f 1d3f f984 16bf 9600 4bbd c691 b73f
00000370: 9a12 1bbe 862e 55bf 8c41 c93f 1dda 5fbf
00000380: 3f50 10c0 0e13 b93f 4097 a6bd eb1c 233f
00000390: 7ae9 5dbf 57a5 67bf 6ef4 133f d12c f33f
000003a0: e01d dabe 801f f8bf 85df a6be 0077 563d
000003b0: 57b1 313f c9d2 903f b48c fdbf ea55 223f
000003c0: b9ef 123e 00a6 34bf ccc7 c5bf 7850 3f3e
000003d0: f738 1e3e a62f 9b3f 878e 993d df8d 913c
000003e0: 780d a5be 1542 4b3e d605 ecbf 4b65 6ebf
000003f0: f0d0 61be 6edd f03e 3385 a1bf facc 2940
2.0904515 0.039008353 0.09074161 -0.4829807 -0.1888974 -0.12567942 -1.0708351 -0.59553033
-0.5606284 -1.0776681 -1.1339452 -0.26401132 2.109422 0.38810068 -0.82307607 -0.570026
0.7378397 -0.29291946 0.040661853 2.2515576 0.22055104 1.8180219 0.8611924 -0.5278198
1.1904886 -0.3702486 0.62831575 0.27455908 -0.037057243 2.0413938 1.2622789 1.0685073
0.7340068 0.4813304 -0.5105986 0.07339361 0.24662976 -0.76661944 0.6227875 0.31706628
0.7737697 1.2319047 -0.9545133 0.007139538 -0.9146063 0.2853064 -0.14358272 -0.60915965
-1.131126 0.4115997 1.1821585 1.1031386 -0.67075974 -0.23054247 -0.94587326 0.29037562
0.17271645 -0.10597591 -0.49898165 0.14778295 -1.1258487 -1.2674065 -0.7084727 0.9633021
-0.47525796 -0.8583391 -0.71949387 0.029345026 -0.06706623 -0.03599344 0.3178329 -0.7071595
0.9058933 -0.36801952 0.23446386 0.6686355 -0.12113971 -0.71713597 -0.8558184 1.141511
-0.17357576 0.35093647 -1.3539927 -1.3483127 -0.027659526 0.4290149 0.5482407 0.6861949
-0.9530165 0.07756799 0.27256826 -1.8026285 1.1567689 1.2108781 0.07677757 0.1399842
-0.1934705 -2.4266398 -0.19687624 0.13796653 0.21694724 0.0013031492 0.5466901 0.3461061
-0.7380481 0.36911318 1.3663666 -0.5003542 0.9672295 -1.1601188 0.3783919 -0.7331814
-0.42016405 1.6720512 -0.9782376 0.6709389 -1.6200309 1.044169 -0.17518866 0.7294529
1.0685393 0.42949864 -0.6559812 -0.0867844 1.5475829 1.1407098 0.2069793 0.0700793
-0.7995014 0.8291303 -0.6091196 -1.4162915 -1.391149 -0.96396184 1.5632223 0.7556633
0.30418935 2.137558 -1.8706423 -0.55458325 -1.3036287 0.60391444 0.69017863 -0.8507569
-0.6115391 0.17601092 0.38058984 0.6183433 0.5727058 0.12477208 -0.86825174 0.6738216
-0.030443566 -0.95050645 -0.9662543 0.93282384 -0.60230166 -1.9800586 -0.05579544 0.7054356
-0.064596556 0.13106588 0.845088 -1.3805139 0.2055016 -0.6762447 -0.47330818 0.2524907
-1.1992831 -0.15154892 -0.777568 -2.1768403 1.3820711 0.43423867 0.30577978 -0.45484552
-0.97946775 -0.6717423 -0.77043 -0.8613097 -0.5383841 0.27923813 0.33911186 -0.7076146
-0.13831773 -0.015595465 0.43311298 0.7156729 -0.13431609 -0.5780158 0.31562105 -0.6315245
0.34609255 -1.758526 -0.19074073 0.13559224 0.08822876 0.6086936 -0.07987287 -0.94719833
0.9315219 -0.22951473 0.89039016 -0.20644873 0.4260339 0.1343801 -0.110706784 0.28200606
-0.26784232 -1.7143841 0.19694248 -0.23830768 0.17242867 0.061836433 -0.21041112 -0.035777397
0.61424315 -0.5879665 -0.049561106 1.4341362 -0.15143815 -0.83274114 1.5723128 -0.8744219
-2.2548978 1.445894 -0.081343174 0.63716 -0.8668438 -0.90486664 0.57794845 1.8998052
-0.42600918 -1.9384613 -0.32592407 0.05235958 0.69411224 1.1314327 -1.9808564 0.63412344
0.1434926 -0.70565796 -1.5451598 0.1868304 0.15451418 1.2123916 0.07497888 0.017767845
-0.32236838 0.19849427 -1.8439281 -0.9312331 -0.2205236 0.47043937 -1.2618774 2.6531358

LSTM.bias_ih_l0 f4 [400]
00000000: 46d4 f03d 41bc 8a3e ac79 b83e e7da b83e
00000010: 4d92 48bd d344 573e a7ef 443e 8e17 ccbc
00000020: d3ac cc3e 9e60 203e 6da3 753e b302 cf3c
00000030: 4caa 8c3d cc05 653e 7fb7 663e e704 883e
00000040: 9fbf 313e 2eef 353e 2699 803e 5387 cf3e
00000050: 8587 9a3d ae1e 9f3e 7993 863e e299 4f3e
00000060: d48e 693e c9fd 113f 0564 173e 0715 cc3c
00000070: 4298 283d 90ff 1c3e d930 6e3d 953d 7a3e
00000080: 63e4 b73e e340 0f3f 2ef5 db3e 06ae a93e
00000090: 882e 0c3f 51f5 ab3e dc9c 1b3d 3593 96bd
000000a0: 873e 293e ab03 ea3e 234b dc3e cb26 503e
000000b0: e815 663d d4c4 0f3e a452 f93e a134 463e
000000c0: 4bcc 1b3e 8f4f 023f 7400 ee3e a78e 433e
000000d0: 1589 293f 167d 0a3e 98b2 013f 9d57 103f
000000e0: 4243 363e e480 aa3e 51fa 0b3f ed27 c33c
000000f0: c060 6f3e a5d0 b53e ee6f b13d 4ba2 d13e
00000100: 6fda 5c3e e3c3 8b3e 048f 3f3f 9a17 a33e
00000110: 2574 303e 3ba3 483e aa41 8a3e bd91 a53e
00000120: 3bc2 343e 6910 053e 79ec 48bd 6b6c 963b
00000130: 0dd0 3a3e be20 82bc 63d2 c23d 5c44 2a3e
00000140: a2b4 033e 2598 a53d 12f8 563e e18d 363f
00000150: a7e3 b93e 7c02 903b 8972 fd3c 3f0c aa3e
00000160: fe06 d63e e44d 6f3d 302f 453e 9a9b 3b3e
00000170: 48bf f33e a57e 3d3e 7b8e 533e 25ed cc3e
00000180: 3541 e33e ac99 bb3e 86e7 1d3e 3163 a43e
00000190: 65f9 82bc baa5 193e 06c6 fb3d 611d 0fbd
000001a0: 39d6 22be 690e eabd 65e0 523d a2a9 453b
000001b0: 23ba e83d e27f 93bd 55ed 46bb 9fac 80bc
000001c0: d3aa 7b3c f7e1 613e 6285 433d 6b00 0f3e
000001d0: fe0f 77bc 353d 09bc b453 9dbb 8cfd b33b
000001e0: eadb da3d 5d44 40be 9ba2 c33d 8bd2 3d3d
000001f0: 5650 863d 714c 813c 8e51 683c cc4c d9bd
00000200: c9eb 273e c03c 8f3d f169 c13d d409 48bc
00000210: eafc 653c 577d f9bd 98ba 403e 696f 09bd
00000220: fd57 933d 5df7 a1be db3c e9bd 4d01 913d
00000230: ffa3 933e d658 0ebc ba37 adbe 3a7c 423c
00000240: 5634 503d 67f0 873d 4cf6 5f3e 4c39 e93c
00000250: acb4 c93c 6bec 59be 7f6c 1b3e 0f4b 81bc
00000260: f210 2a3e d8dd d53d c9b2 323e fdd3 513c
00000270: 1319 3f3e 12d0 34bd 50d7 073e 1734 473d
00000280: 8a85 0f3d 3102 eebd cb4c 253e 13c3 7cbd
00000290: 1e7c 79be afb5 10bb d3c1 93be d599 d13c
000002a0: b7ae 3cbe d9ac 633d 3197 343d 6b74 813c
000002b0: f5c4 5abe 5b7d 29bd dc4f de3d 3d01 15bd
000002c0: 0636 b83d 22e5 9fbd 5206 1dbe 5a4c 863d
000002d0: 5923 b53d f465 81bc a72e 0a3c 392c 19be
000002e0: 1cd1 d43d 165a d0bd f804 ed3d 6fd7 103e
000002f0: 44b2 363e 8b8d 69bd e3cc 2a3c 575e 603d
00000300: b180 003e 0a7f 6abe 69ad e33d dc28 90bd
00000310: 9422 8c3e f7c3 273e 15f3 2c3e 3fc8 fcbb
00000320: 6422 103e c877 21be a896 b43d 49c3 fcbb
00000330: e832 32bc 9be5 443d cda3 813d 9de0 dbbd
00000340: eccb 473e 0060 b23a f2f9 8e3d 5e93 16bd
00000350: a262 133d ea9a 003e 727a 40be dac6 c7bd
00000360: 6713 da3d 9f61 d93d 332c fe3d 0ed7 803d
00000370: 3897 90bd 8a15 1fbd c8ca 933d 4a50 103e
00000380: d7ca 91bd a504 0a3e 9b73 e53d 316c aa3c
00000390: c1a5 10be 6567 4b3e da6e 043e 85ac 923e
000003a0: 2a20 08be 3741 33bd ec3b 51be 4f68 1d3d
000003b0: 7134 85be dc56 11bd d9b0 a0ba 9e7f d03d
000003c0: e92a aebd 42cf 153c 0667 5dbd a5ab 3f3d
000003d0: 2acd db3d ab1e 0f3e ec03 9f3c ab0b 7ebe
000003e0: c449 f5bc 1206 fb3d c108 b3bd a7f6 9b3d
000003f0: 93f7 833e cb78 9d3d 4608 023e 1a22 013e
0.11759238 0.2709675 0.36030328 0.3610451 -0.04896765 0.21022348 0.19232045 -0.024913576
0.39975604 0.15661857 0.23988123 0.025269842 0.06868419 0.22365493 0.22530936 0.2656624
0.17358254 0.17767021 0.25116843 0.40532932 0.075453795 0.31078094 0.26284388 0.20273545
0.22808391 0.5702787 0.14784248 0.02491237 0.04116083 0.15331864 0.058152054 0.24437554
0.35916433 0.55958384 0.42960495 0.33140582 0.547585 0.335856 0.03799139 -0.07352296
0.16527759 0.45705923 0.43026075 0.20327298 0.056173235 0.14039928 0.48695862 0.19356014
0.1521465 0.50902647 0.4648472 0.19097386 0.66224796 0.13524279 0.5066314 0.5638369
0.17799094 0.3330146 0.5467883 0.023822749 0.23376751 0.35510746 0.08663927 0.40944132
0.21567701 0.27297887 0.748276 0.31853944 0.17231806 0.19593517 0.27003223 0.32337752
0.17652218 0.12994541 -0.049053643 0.004590561 0.18243428 -0.015884753 0.09512784 0.1662764
0.12861875 0.0808566 0.20993069 0.7131024 0.36306497 0.0043948274 0.030938404 0.33212468
0.4180221 0.05842389 0.19256282 0.18321076 0.47606874 0.18505342 0.2065982 0.40024677
0.44385687 0.3664068 0.1542035 0.32106927 -0.015988061 0.15004626 0.12293629 -0.034940127
-0.15902032 -0.1142853 0.05148353 0.0030160923 0.11363628 -0.07202126 -0.0030353863 -0.015707312
0.015360552 0.22058855 0.047734626 0.13965003 -0.015079496 -0.008376409 -0.004801238 0.0054928716
0.106864765 -0.18776079 0.09552499 0.046343368 0.065582916 0.01578352 0.0141796 -0.10610351
0.16398539 0.06994009 0.09444035 -0.012209374 0.01403735 -0.1218211 0.1882118 -0.033553515
0.07194517 -0.31634036 -0.113885604 0.07080326 0.28836057 -0.008688172 -0.33831578 0.011870438
0.05083116 0.0663765 0.21871299 0.028469704 0.024622284 -0.21281593 0.15178107 -0.015782861
0.16608027 0.10442704 0.17451014 0.01280689 0.18661909 -0.044143744 0.13265729 0.04863366
0.035039462 -0.11621512 0.16142575 -0.061709475 -0.24363753 -0.0022080948 -0.28858814 0.025586048
-0.18426023 0.055584762 0.0440895 0.015802583 -0.21364196 -0.041379314 0.10855076 -0.036378134
0.08994679 -0.078073755 -0.15334442 0.06557532 0.08844633 -0.015795685 0.008433974 -0.14958276
0.10391447 -0.101734325 0.11573213 0.14144681 0.1784144 -0.05701975 0.010424825 0.05477747
0.12549092 -0.22900024 0.1111706 -0.07039043 0.2737013 0.16383348 0.16889603 -0.007714301
0.14075619 -0.15768349 0.08817798 -0.0077137095 -0.010876395 0.04807053 0.06330071 -0.10736201
0.19511384 0.0013608932 0.06981267 -0.036761634 0.035982735 0.12559095 -0.18796709 -0.09754725
0.10648232 0.10614323 0.12410774 0.062910184 -0.07060093 -0.0388389 0.07216412 0.14093128
-0.07118767 0.13478334 0.112036906 0.020803543 -0.1412573 0.1986366 0.12932912 0.28647247
-0.1329352 -0.043763366 -0.20433015 0.038429555 -0.26016572 -0.035483226 -0.0012259736 0.10180591
-0.08504278 0.009143652 -0.05405333 0.046794552 0.10732491 0.13976543 0.01941105 -0.24809138
-0.0299424 0.12257017 -0.08741904 0.076154046 0.25774822 0.07689055 0.12698469 0.12610665

LSTM.bias_hh_l0 f4 [400]
00000000: 6783 0d3e 48bf 563e aed8 ab3e c048 563e
00000010: 7e5d c1bd bb72 453e 6058 b93e 65ae aebc
00000020: a20b 043f 84a2 413e 722b 463e 9bc2 e23d
00000030: 6403 e73d f9ec 5d3e 177d 193e 4869 bd3e
00000040: 42ba 443e 4cf3 803e 3fd5 ba3e c66a 893e
00000050: 334f cb3c 6e24 9e3e 9108 803e 2844 923e
00000060: 84ac 263e d911 e23e db6a 653e db22 253e
00000070: 1ac9 82bc 7bcf a13e 35c5 fb3c 59e2 9c3e
00000080: 4bee 9e3e 1525 103f 4ff7 9f3e a139 d73e
00000090: b47f 033f b38a 513e fef7 d53d 069e 8b3d
000000a0: d761 883e 5ba1 ce3e 325e aa3e 8fb5 293e
000000b0: 867b 133e 277f 163e 006b c63e ff74 643e
000000c0: 72ca 2f3e dbde 093f db64 cb3e 5526 aa3e
000000d0: 5d8a 4d3f cc4c 733e ac6d 0d3f 78e6 1c3f
000000e0: a7db 1d3e e9e4 e23e 661c dd3e a9c2 e23d
000000f0: 7fe9 393e 02f0 8d3e bc46 043e a5e9 ad3e
00000100: 0d5a 713e 952f 8a3e c6d9 493f 3310 ac3e
00000110: 17ba 8e3e c250 cb3d a472 7f3e 60e7 bd3e
00000120: fccb 103e 7b62 ecbb 27f0 ab3c 7323 4dbd
00000130: 36ef 513e d78a 863c db61 543e 3ca2 053d
00000140: e302 cc3d 3c40 ee3d 4a9f 683e 0216 3f3f
00000150: ab40 d53e b006 293e 80eb 213d 83a7 a53e
00000160: 6d72 e03e 2493 2b3e 1368 e23d 665c a43d
00000170: 7275 e03e 7477 283e 407e 463e 1ee5 893e
00000180: 2e98 f03e b470 6d3e 55e0 4a3e 043e 973e
00000190: 8c9b b33d bbc0 a43d 9471 853d 09cb 1b3d
000001a0: 4bfc 0abe 910a 773d b191 713d 68f5 ed3b
000001b0: bd94 563b 4ed9 74bc f5b9 74bd 4b3c 603d
000001c0: 12cc e53d 595a 533e b719 043e 00b7 873d
000001d0: 2e0d 1abd 3287 c63d fc47 01bb bb02 33bd
000001e0: 1a4b fd3c b804 7cbe b96a 8f3c 8203 ef3d
000001f0: ab9d 01bd f2ce ae3d 86ac 9c3d 850d 28be
00000200: d028 ab3d 0327 e83d a6fe 283e d86e 06bd
00000210: 23fa 303d ce20 5ebd 4cdb 5b3e 8d78 653d
00000220: dcd4 0d3d b678 b0be 81cb 333c b79f 123e
00000230: e260 803e 48c2 533d 5bee a2be ca8a d73c
00000240: a838 393c 4a63 3c3e 12cd 0d3e 5c9b 243d
00000250: 2e50 043e c2a8 c5bd a62a 1a3e 93d5 703c
00000260: 3f8f 303e 1b9d ecbc fc63 823e 3be6 f83a
00000270: daad cd3d 9197 3f3d 2de4 1f3e 9c12 53bd
00000280: c994 c73d 05b3 343d e377 003e 3e53 30bc
00000290: e92d 16be a0aa 00be b108 20be 25f5 143d
000002a0: 4386 5fbe aa49 70bd 42a8 d7bc 46c5 9bbb
000002b0: 6f3e 32be 484b 66bd b1a8 84bd 8d95 59bd
000002c0: 80b1 303e b6b0 83be 8eaa 03be d7b8 edbc
000002d0: fff5 a33d 9b5c 89bc 128f 3abc 831c 81be
000002e0: d24e 073e 7e5b 12be b3b4 b83d 5dcd 193e
000002f0: 20fe c83c 2a24 ba3d b5eb dd3c 623d 413e
00000300: d884 9a3c 31c8 8bbe 26ed c73c 398b bbbb
00000310: 5103 a73d dd8c c33d c48d 403e 3a01 663d
00000320: e729 b8bb 1c17 55be 8003 ba3c ea1f 523d
00000330: 2787 063e 0d9b a63d 2dbb 413c 325a e6bd
00000340: 29e0 8f3d a8c9 3bbd 9338 a73d 3f97 443d
00000350: 85cf e23d 1d5a 113d 4a17 13be cf75 0bbe
00000360: 5eb2 f83d 2723 18bc 7747 ed3d b9c6 b23d
00000370: 2b97 013c fa17 4a3d 93fd 443e 0a1d 1f3e
00000380: 6135 95bd 05ff 163e 8be9 d93d 4d50 76bd
00000390: 689c dbbd 81d2 113e 6241 6f3d b263 b43e
000003a0: bc45 e8bd 4ba8 1d3d 8dbb 95bd a780 0e3e
000003b0: 408b 94be d386 ff3c bb7c b6bd 8265 a83c
000003c0: db61 a7bd d442 adbd a7ce 26bd 5f4b 5cbc
000003d0: 6ee3 b73d 9959 3c3e 5052 363e 1995 7abe
000003e0: 1fd7 883c d4b7 803d b095 9c3d ba6f db3d
000003f0: eafb 7c3e e072 f23d 64d7 4c3e 073b dd3d
0.13819657 0.20971406 0.3356375 0.2092619 -0.0944166 0.19282047 0.36200237 -0.021323392
0.5158025 0.18909651 0.1935251 0.11072274 0.112799436 0.21672429 0.14989124 0.36994386
0.19211677 0.2518562 0.3649082 0.26839274 0.024818039 0.3088717 0.25006536 0.28567624
0.16276747 0.44154242 0.22404043 0.16126578 -0.015965033 0.31603608 0.030733684 0.3064144
0.31041178 0.5630658 0.3124337 0.42036155 0.51366735 0.20463066 0.104476914 0.0681725
0.26637146 0.4035748 0.3327499 0.16573165 0.14402589 0.14696942 0.3875351 0.22310255
0.1716707 0.53855675 0.39725384 0.3323237 0.8028925 0.23759764 0.5524547 0.6128917
0.15415822 0.4431527 0.4318573 0.11072285 0.18155478 0.27722174 0.12917608 0.3396732
0.23569508 0.26989427 0.7884792 0.3360611 0.2787635 0.09927513 0.24946076 0.37090588
0.14140314 -0.007213888 0.020988537 -0.050082635 0.20501408 0.016423626 0.20740454 0.032625422
0.09961488 0.116333455 0.22717014 0.74642956 0.416509 0.16506457 0.03953123 0.32354364
0.438373 0.16755348 0.11055007 0.08025436 0.43839604 0.16451818 0.19384098 0.26932615
0.46991104 0.23187524 0.19812138 0.29539502 0.087699026 0.08044573 0.06515804 0.038035426
-0.13572805 0.06031281 0.058976833 0.0072619207 0.0032742464 -0.014944388 -0.059747655 0.054745
0.11220564 0.20639934 0.12900434 0.06626701 -0.037610225 0.09693755 -0.0019726744 -0.043703776
0.0309196 -0.24611175 0.017506944 0.11670591 -0.031644505 0.085355654 0.07650094 -0.16411407
0.08357394 0.11335566 0.1650339 -0.032820553 0.0432073 -0.054230504 0.21470374 0.05602317
0.034626827 -0.34467095 0.010973812 0.14318739 0.25073916 0.051698953 -0.31822476 0.026311297
0.011305012 0.18397251 0.1384776 0.040187225 0.12921211 -0.096513286 0.15055332 0.014699358
0.17242144 -0.028883507 0.25466907 0.0018989512 0.10042925 0.046775404 0.15614386 -0.05153142
0.097451754 0.04411604 0.12545733 -0.010762034 -0.14665951 -0.12565088 -0.15628316 0.0363666
-0.2182856 -0.058664 -0.026325349 -0.0047537414 -0.17406629 -0.056224138 -0.06477488 -0.05312114
0.17255211 -0.25720757 -0.1285803 -0.029018803 0.080059044 -0.01676779 -0.01138665 -0.25217065
0.13213661 -0.14292714 0.09018841 0.15019746 0.024535239 0.09088929 0.027089933 0.18871072
0.018862173 -0.2730117 0.024405073 -0.0057233837 0.081549294 0.09548352 0.1880408 0.056153513
-0.0056202295 -0.20809597 0.022706747 0.051299967 0.13137494 0.08135042 0.011824411 -0.11247672
0.07025177 -0.04584661 0.081650876 0.047995802 0.110747375 0.03548633 -0.14364353 -0.13619159
0.12143396 -0.009285725 0.115858965 0.087293096 0.007909576 0.049339272 0.19237356 0.15538421
-0.07285572 0.1474572 0.10640248 -0.060135175 -0.107231915 0.14240457 0.058411963 0.3523231
-0.11341426 0.038490575 -0.07311163 0.13916264 -0.2901249 0.031192219 -0.08910509 0.020556215
-0.08172961 -0.08460012 -0.040724423 -0.013445704 0.08978926 0.18393554 0.17804837 -0.24470939
0.01670414 0.062850624 0.07645738 0.107146695 0.24705473 0.11838317 0.2000404 0.10802274

LSTM.weight_ih_l1 f4 [400, 100]
00000000: 3921 71bf fddc 923f aeba ef3f f34e 8c3f
00000010: 866f 3abf be25 95be 262e acbe 7a77 5dbe
00000020: 68ca a83d 71a2 043b 9c0b 3dbf 1eb9 bb3e
00000030: 6e6c 45bf 7fca 9cbf bded 5d3f 9b23 64bf
00000040: 6c86 4d3f d4fa b5bf 63be 6abf 4ded 0d3f
00000050: a2fe 9e3f 6d25 05be 5183 563d 7a5a 893f
00000060: 694a d8bf 67e4 3fbf d5a0 d9be 4c4b 45bd
00000070: 0cc6 49bf 455b 5cbf 08bd c5be 8073 cdbe
00000080: 0cb3 a2be 7268 99be a757 bd3c d796 b03d
00000090: d706 05c0 7d4c 44bf 0645 d8be 5deb d93e
000000a0: 3983 d1bf 40f7 18bf d47c 013f 69c3 2dbf
000000b0: 4357 32be 018b abbf a5e6 ea3f a4cd e8be
000000c0: 38ef 703f c4e0 f53f 3ea1 b5bf c277 93be
000000d0: 2b30 fd3e 6592 18c0 418e dabd dd5d 233f
000000e0: 216f 84be a509 53bf 81b0 15bf b52c d7be
000000f0: a301 153f dff1 dfbe a2fe 21be 2c00 c33f
00000100: 26cd b3bf 1d29 993f 574e 4d3f 671d eb3e
00000110: da19 033d 10f5 7d3f 46ff 48bf 2f90 143e
00000120: 0033 3b3f 1b4f 0e3f 872b 563f 935e 583f
00000130: de77 4bbe 617f 8c3f 0107 e9bf 3f3f f13e
00000140: 30a5 3f3f 60bf 91be dd39 01bf 7b99 cf3d
00000150: ddba 993f c60d 27bf beba aa3c baea 5ebe
00000160: 0862 963e 2c4b 5bbe 5914 7d3c 6915 93bf
00000170: 1372 f9bf 7c8a 2a3f 1ffe 3f3f 5c77 b5be
00000180: 2a6e b23f d5f8 de3e 4882 2c3f 9be0 383f
00000190: e676 af3f f178 593e 6a13 053d cdff 3e3e
000001a0: 84f8 9abe af7f 473f 755f cabe d48e e4be
000001b0: c39e a3be c8e3 8c3f 0c35 ac3f d85b b8be
000001c0: 29f5 dfbf 9a2b aebb f7bb 8cbf 9163 d9bd
000001d0: 5186 d0bf d39c c63f b53e 3cbe 06fe 1f40
000001e0: 4eab 953e 5da2 0b40 c246 08bf 093d 03bf
000001f0: f013 913e 102d e23f b709 b33f eb05 263d
00000200: 20df 37bf 78ec 883e 1fd6 5fbf c308 443f
00000210: 2239 8f3f 9f53 4bbf 2711 c4bd a007 99bf
00000220: 4308 b43f 9ae4 07be 8de2 c5bf 3ddf 863e
00000230: df99 33bf c5c1 e5be fb24 de3f ce68 d0be
00000240: 12d8 5abf 57c9 773e 9dbc 953e d63a bf3d
00000250: d029 40bf 2013 703e a134 df3d bd9a 5e3f
00000260: 0420 8abf 2c83 4c3e e88b e53f 765d 73bd
00000270: 7601 803e 9c86 ecbe f7f4 9ebe 3233 96bf
00000280: e994 0cbe db24 383f d8af d13e 5275 65bf
00000290: 2db7 77bf 697f 403f cd3c d7be fbcd 123f
000002a0: b40c c43f 24d2 f93e 01dc 01bf 45d7 f23e
000002b0: d3a1 803e 200a 8a3f 8b03 15bf 326a 703e
000002c0: 60e4 01be f4f0 4b3e 0fae bd3f fbe5 063e
000002d0: fa0d 093e 0735 7d3f 5e4b 57be 7ec2 5dbd
000002e0: 2d8a 21be 58ae 2cbe 842e 0cbf ee5c 6d3e
000002f0: d173 a9bf 45cf 7d3f 5bd9 97be de38 fbbe
00000300: fd8b 053f 19d7 7f3f c67e 7bbe 3965 653e
00000310: 83ae 3dbe b12f 2bbf 8d10 12bf ba2f d03e
00000320: e392 e9be 06d6 8abf 46a8 a9be 5402 863e
00000330: 7f88 98be 1da5 db3d 6ca6 fb3e 7c5c 65bd
00000340: fd62 1b3f d4a9 2540 bf2c cfbe cb66 97bf
00000350: 710a df3e 2bb6 803f 870b b9bd b624 16be
00000360: a72c c93e 3994 fbbe 47e6 963e 41dc a93e
00000370: 35f9 93bf 42de 1cbf 9b48 94bf 897e 53bf
00000380: 39c9 e53d 503b 01bf 2c45 14bf 6f6d 823e
00000390: 6414 aa3e e8f3 253e 94f9 babf 24ff 633f
000003a0: ca9c 86bf fe10 0f3e d77a 9d3f 214a 9d3c
000003b0: 8a45 ef3d 3b70 923f a2cd b3be 9954 a8be
000003c0: c7be 1ebe 5a53 793f 8f93 1b3e a244 593e
000003d0: b48b c3be 1f4a 7abf 2d05 eebe 01e6 55bf
000003e0: 9e81 86be b92b cbbf aaad e23e 570e d73b
000003f0: 4630 4c3f ea9c 3dbf b6d0 00bf 81eb 3cbf
-0.9419132 1.147369 1.8728845 1.0961593 -0.7282642 -0.29130358 -0.33628958 -0.21627608
0.08241731 0.0020238424 -0.7384584 0.3666467 -0.77118576 -1.2249297 0.86690885 -0.8911683
0.80283237 -1.4217172 -0.9169676 0.5544022 1.2421458 -0.13002558 0.052371327 1.0730736
-1.6897708 -0.7495789 -0.42505518 -0.04816751 -0.7881782 -0.86076766 -0.38620782 -0.40127182
-0.31777227 -0.29962498 0.023113085 0.086225204 -2.0785425 -0.7667921 -0.4224016 0.4256238
-1.6368171 -0.59752274 0.505811 -0.678763 -0.174161 -1.3401796 1.8351637 -0.4546939
0.9411502 1.9209218 -1.4189832 -0.28802305 0.49450812 -2.3839352 -0.10671664 0.638151
-0.25866035 -0.8243659 -0.5847245 -0.42026296 0.5820562 -0.4373922 -0.15819791 1.5234427
-1.4046981 1.1965672 0.8019766 0.4592087 0.032007076 0.9920206 -0.78514516 0.14508127
0.73124695 0.55589455 0.8366017 0.8451931 -0.19869944 1.0976373 -1.8205262 0.47118565
0.7486143 -0.2846632 -0.5047892 0.10136696 1.2010151 -0.6525539 0.020840999 -0.21769229
0.29371667 -0.21415395 0.015446746 -1.1490909 -1.9487938 0.6661756 0.74997133 -0.35442626
1.3939869 0.4354922 0.67386293 0.7221772 1.370816 0.21237542 0.032489218 0.18652268
-0.30267727 0.77929205 -0.39525953 -0.4464022 -0.31957063 1.1007013 1.3453689 -0.3600757
-1.7496692 -0.0053152563 -1.0994862 -0.10614694 -1.629099 1.5516609 -0.18383296 2.4998794
0.29232258 2.1817849 -0.5323297 -0.5126501 0.28335524 1.7670002 1.398734 0.040532988
-0.71824837 0.2674291 -0.874361 0.7657587 1.118931 -0.7942447 -0.09573584 -1.1955452
1.4065021 -0.13270798 -1.5459763 0.26342192 -0.70156664 -0.44874397 1.7355036 -0.4070496
-0.8548595 0.24197899 0.29245463 0.09337394 -0.750638 0.23444796 0.1089871 0.8695486
-1.079102 0.19971913 1.7933321 -0.059415303 0.25001115 -0.4619645 -0.31046268 -1.1734374
-0.1372868 0.71931237 0.4095447 -0.8963214 -0.9676388 0.7519441 -0.42038575 0.5734555
1.5316377 0.48793137 -0.50726324 0.47429863 0.25123462 1.078434 -0.5820853 0.2347801
-0.12684774 0.19916135 1.4818743 0.13173668 0.13384238 0.9890904 -0.21024844 -0.05414056
-0.15775366 -0.16863382 -0.5475848 0.23179981 -1.3238469 0.99144393 -0.29658017 -0.49066824
0.5216673 0.9993759 -0.24560079 0.22401895 -0.18523602 -0.66869646 -0.57056504 0.40661412
-0.45619878 -1.0846565 -0.33136195 0.2617365 -0.29791638 0.10724852 0.49150407 -0.055996403
0.6069792 2.5884905 -0.40463826 -1.1828245 0.43562654 1.0055593 -0.09035402 -0.14662442
0.3929188 -0.49136522 0.29472563 0.33175853 -1.1560427 -0.6127664 -1.1584657 -0.8261495
0.11220021 -0.5048113 -0.5791805 0.25474116 0.33218682 0.16206324 -1.4607415 0.8906119
-1.0516598 0.13971326 1.2303113 0.019200386 0.116831854 1.14405 -0.35117823 -0.32877043
-0.15502463 0.9739281 0.15193008 0.21217588 -0.38192523 -0.9776935 -0.46488324 -0.83554083
-0.26270765 -1.5872718 0.4427312 0.0065629887 0.7976116 -0.74067557 -0.5031847 -0.7379685
